backend/models/role_classifier.pth (torch, 9701 bytes, 2 tensors)

fc.weight f4 [5, 384]
-0.022724912 0.041912533 -0.014394162 0.051842406 -0.02854268 -0.010940448 0.045398407 -0.003066481
0.0043632565 -0.026582778 -0.0042039896 0.042037625 0.04827863 0.007103273 0.010025856 -0.019571787
0.00023886096 0.04156099 -0.0044845985 0.060578547 0.055995453 -0.06335315 0.0065365783 0.046781886
-0.053712025 0.0014685374 0.070495725 -0.019318018 -0.021681014 -0.019488629 -0.02937741 -0.048661087
-0.019642146 -0.008936666 0.009823574 0.045790415 0.016439581 -0.04925549 -0.004039079 -0.056285657
-0.03379084 -0.015958827 0.017359437 -0.033281058 -0.021347396 -0.077983804 -0.019631648 -0.010773561
-0.041466247 -0.037766166 0.051986776 0.0014093611 7.5617572e-06 0.013035224 -0.042412266 0.070711754
-0.015893426 0.04116214 0.016749172 0.023880815 0.028844437 0.017241573 -0.074749075 0.009352939
0.0055326526 -0.031057425 -0.03191842 -0.08004494 0.062721364 -0.011405216 0.0039345855 -0.055993788
-0.026915181 -0.0013754619 0.009791204 -0.023427144 0.052107383 0.02602896 0.025632454 0.0025847408
0.020655435 0.020627359 0.079798326 0.0021900903 -0.012348173 0.058894854 -0.016034154 -0.05005306
0.025209282 0.029239807 0.072988264 -0.007611107 0.009443299 -0.027341928 0.053770073 0.001174742
-0.068383105 -0.012271562 -0.03904536 0.054401852 -0.080640905 -0.011588864 -0.020885348 -0.056726936
0.040813435 0.044631086 0.011053638 -0.05904663 -0.0044723065 0.035785697 0.018202191 0.068632714
0.039173774 0.05408334 0.0101440465 -0.0047574504 0.0055693993 -0.08029518 0.015396529 0.0394981
0.016733859 0.041435294 -0.007694381 -0.07212936 -0.0036907345 0.054499682 0.016902585 -0.0008212924
0.05554093 0.04354565 -0.014588958 0.06641665 -0.002317521 -0.031187175 0.0025923103 -0.043787885
0.054501437 -0.00625546 -0.009300617 -0.04136709 0.0038986292 -0.011105405 0.06349945 0.07747457
0.0807381 0.005012469 0.055563938 0.0042633694 -0.07185698 0.028266812 0.0022878589 -0.011489398
0.029560806 -0.02153709 0.0009709153 -0.017269485 -0.019365862 0.017912969 0.077695064 0.016012462
-0.06011914 0.06142236 0.041260567 0.04137707 0.07430935 -0.06862445 -0.04840054 -0.027696572
-0.0096963765 0.009684578 -0.06682257 -0.004706023 0.012228981 0.047257867 -0.056477502 0.019504726
-0.019135455 0.05592236 -0.024771301 0.0027477464 0.042802505 0.047068536 0.009463234 0.0048178276
-0.014892191 -0.017021066 -0.07967809 0.055681102 -0.053790905 0.013727391 0.050600607 -0.022242563
0.075352915 -0.0019957907 -0.080499396 -0.0062589133 0.06905727 0.017428672 0.0044820737 -0.034967255
0.020184707 -0.042666893 0.0025116955 -0.06051588 -0.00514109 0.03889747 0.005982742 -0.02750761
0.06308071 -0.02095592 -0.048513297 -0.0021605263 -0.070647985 0.049106333 0.016981013 -0.020613799
0.012444308 0.012991392 0.07719529 0.07099032 -0.018426893 -0.017534662 0.032768816 0.008499172
0.045385618 -0.019870022 -0.045101024 -0.004039758 -0.05102835 -0.06588099 0.014277062 0.0782341
0.017920837 -0.0016216736 -0.059886098 0.042837787 -0.026763573 0.041196253 -0.025418213 0.002032068
0.041791376 0.03427545 0.050261885 -0.0043301983 0.025850588 0.009567896 0.05371977 -0.06860274
0.060339857 -0.015892124 -0.062578715 0.015564117 0.016017448 0.009623353 0.032538556 -0.013215395
00000000: 9829 babc 7aac 2b3d 7ed5 6bbc b458 543d
00000010: 57d2 e9bc 913f 33bc aef3 393d 04f7 48bb
00000020: a6f9 8e3b 20c4 d9bc 9fc1 89bb a52f 2c3d
00000030: d0bf 453d 93c2 e83b 7d43 243c 0355 a0bc
00000040: c076 7a39 db3b 2a3d 8af3 92bb 3621 783d
00000050: 7d5b 653d 4cbf 81bd cb30 d63b 5d9e 3f3d
00000060: 2401 5cbd f07b c03a 1060 903d d240 9ebc
00000070: 629c b1bc 9ea6 9fbc e5a8 f0bc d950 47bd
00000080: 91e8 a0bc 186b 12bc 0ef3 203c bb8e 3b3d
00000090: 4dac 863c 20c0 49bd 405a 84bb ca8b 66bd
000000a0: 4468 0abd 16bc 82bc 6135 8e3c b851 08bd
000000b0: bce0 aebc f9b5 9fbd 8dd2 a0bc 9783 30bc
000000c0: 83d8 29bd b2b0 1abd 16f0 543d 50ba b83a
000000d0: 00bb fd36 b191 553c 7cb8 2dbd 53d1 903d
000000e0: ee32 82bc a299 283d 8f35 893c b3a1 c33c
000000f0: 2b4b ec3c 333e 8d3c 0b16 99bd 123d 193c
00000100: 414b b53b 246c febc e4bc 02bd 9aee a3bd
00000110: 0f74 803d f1dc 3abc b2ed 803b be59 65bd
00000120: 3a7d dcbc d848 b4ba 496b 203c 48ea bfbc
00000130: 8d6e 553d af3a d53c 27fb d13c c164 293b
00000140: 9635 a93c b5fa a83c 4e6d a33d 9e87 0f3b
00000150: fe4f 4abc bb3b 713d 0f5a 83bc 7004 4dbd
00000160: b283 ce3c 5288 ef3c df7a 953d 9866 f9bb
00000170: 11b8 1a3c 2efc dfbc 023e 5c3d cdf9 993a
00000180: 710c 8cbd a90e 49bc 07ee 1fbd 7ad4 5e3d
00000190: 0f27 a5bd 38df 3dbc c017 abbc 815a 68bd
000001a0: fd2b 273d 16cf 363d 511a 353c e1da 71bd
000001b0: 6d8c 92bb 0694 123d c31c 953c 4f8f 8c3d
000001c0: ae74 203d 7e86 5d3d 3733 263c 63e4 9bbb
000001d0: 827f b63b cd71 a4bd b941 7c3c c2c8 213d
000001e0: 7215 893c 0eb8 293d 2521 fcbb 8fb8 93bd
000001f0: 40e0 71bb 0f3b 5f3d 4a77 8a3c 004c 57ba
00000200: e37e 633d ec5c 323d 8606 6fbc 7405 883d
00000210: 8de1 17bb 3f7c ffbc c0e3 293b ed5a 33bd
00000220: e63c 5f3d 9afa ccbb 9d61 18bc 8a70 29bd
00000230: 2580 7f3b 72f3 35bc 000c 823d fdaa 9e3d
00000240: 045a a53d a33f a43b 0397 633d bcb3 8b3b
00000250: c129 93bd cd8f e73c e7ef 153b 073e 3cbc
00000260: 8129 f23c 8d6e b0bc 0685 7e3a bc78 8dbc
00000270: 28a5 9ebc 38be 923c 971e 9f3d 912c 833c
00000280: 7d3f 76bd 0396 7b3d d700 293d 017b 293d
00000290: 802f 983d fa8a 8cbd a53f 46bd ece3 e2bc
000002a0: 8ddd 1ebc 10ac 1e3c 46da 88bd fb34 9abb
000002b0: 105c 483c 7791 413d f454 67bd 60c8 9f3c
000002c0: f5c1 9cbc d80e 653d 2fed cabc 8913 343b
000002d0: ae51 2f3d f0ca 403d ae0b 1b3c dede 9d3b
000002e0: 60fe 73bc c36f 8bbc 442e a3bd de11 643d
000002f0: da53 5cbd dae8 603c 9542 4f3d 0936 b6bc
00000300: a152 9a3d d0cb 02bb dedc a4bd 9217 cdbb
00000310: e66d 8d3d 93c6 8e3c 5cde 923b d339 0fbd
00000320: 665a a53c 7bc3 2ebd 429b 243b 80df 77bd
00000330: 9776 a8bb f452 1f3d e10a c43b a457 e1bc
00000340: 7630 813d c0ab abbc e1b5 46bd 9e97 0dbb
00000350: e4af 90bd b923 493d c41b 8b3c 45de a8bc
00000360: 36e3 4b3c d9d9 543c 9018 9e3d 5f63 913d
00000370: fff3 96bc daa4 8fbc 9838 063d 1c40 0b3c
00000380: 45e6 393d 75c6 a2bc dabb 38bd f25f 84bb
00000390: 1a03 51bd 9dec 86bd 57ea 693c 3339 a03d
000003a0: b8ce 923c 568e d4ba 204b 75bd ad76 2f3d
000003b0: 483f dbbc 67bd 283d db39 d0bc 722c 053b
000003c0: 6f2d 2b3d 6a64 0c3d 68df 4d3d 56e4 8dbb
000003d0: 9dc4 d33c aac2 1c3c 4309 5c3d 987f 8cbd
000003e0: ed26 773d 3330 82bc 4529 80bd a300 7f3c
000003f0: 0637 833c 45ab 1d3c 2647 053d 6285 58bc

fc.bias f4 [5]
0.0065057683 0.015892703 0.002611078 0.010372525 0.027920462
00000000: 572e d53b 6a31 823c 9f1e 2b3b 86f1 293c
00000010: 74b9 e43c
