backend/models/role_classifier.pth (torch, 9701 bytes, 2 tensors)

fc.weight f4 [5, 384]
000000 c1 ae 0b bd 10 91 82 3c 73 9c 98 bd a9 f6 7b bd
       -0.034102205 0.015938312 -0.07451715 -0.06151453
000010 7e 41 59 bc 01 ff 5c 3c 91 58 35 3d c0 ca 2d 39
       -0.013260243 0.013488532 0.044273917 0.00016574096
000020 a4 c3 28 bd 59 9e 7a 3b 83 36 95 bd 0b a9 41 3d
       -0.041202202 0.0038241355 -0.07285788 0.047280353
000030 67 c6 ce 3c fa e1 3e 3d f0 ad be 3c 50 7e 81 3c
       0.02524109 0.046602227 0.0232763 0.0158073
000040 9a 71 e5 bb bf 8f 48 3d c6 64 d8 bb 3e 55 45 3c
       -0.0070020678 0.048965212 -0.00660381 0.012044249
000050 a7 9c 0d 3c e7 25 f2 bc 5c 95 9e bd e5 d6 a2 3d
       0.008643306 -0.029559089 -0.07743332 0.07951144
000060 ac d7 4f bc b8 9d 36 bd 0e f7 bd bb df c5 82 bd
       -0.0126856975 -0.044584006 -0.0057972735 -0.06385397
000070 99 74 8c 3b f7 f8 18 3d 3c d2 83 bd 2d d6 40 bc
       0.0042863605 0.037346806 -0.064365834 -0.0117698135
000080 5a 4b 66 3d e3 2c 38 3c 0d 25 87 bd a3 34 98 3d
       0.056224205 0.011241171 -0.06598864 0.07431915
000090 ee 98 2a 3c 60 68 a5 3c 59 09 52 3d 0a f7 82 bd
       0.010412438 0.020191371 0.051278446 -0.06394775
0000a0 74 99 c5 bc 18 52 8c 39 46 52 bd bb ea b3 45 bd
       -0.024121024 0.00026764045 -0.00577763 -0.048267283
0000b0 35 64 47 3d 8d 0e 51 bd c0 8e 90 37 05 8b 9f 3d
       0.04867955 -0.051039267 1.723261e-05 0.07790188
0000c0 fb 4e dd bc 31 0f 43 3c 52 7c 93 3d be 67 09 bc
       -0.0270152 0.011905477 0.072014466 -0.0083865505
0000d0 b0 90 36 bd 63 43 67 bd 1b 19 f1 bb d6 33 6d 3d
       -0.04457158 -0.05646075 -0.007357729 0.057910763
0000e0 8d 6c 0d bd e4 97 24 bc b6 9b 9e bd c6 10 8e 3d
       -0.03452735 -0.010045979 -0.07744543 0.06936793
0000f0 40 83 8d 3d 3a 79 89 bd 81 8a c2 bc aa 76 3e bb
       0.069097996 -0.06712575 -0.023747684 -0.0029062429
000100 57 bf 5d 3d f4 7c 70 bd 33 1a 15 bd 5f e6 a8 3c
       0.054137554 -0.058712915 -0.03640194 0.020617662
000110 83 46 56 3d bc aa 42 bd 73 ca 59 3d 91 34 a9 bc
       0.05231334 -0.047526106 0.053171586 -0.020654948
000120 be b8 8b bd f3 24 51 bc 3a 52 50 bd 97 55 8c bd
       -0.06822346 -0.012765157 -0.050859667 -0.068522625
000130 e5 be d9 3c af 58 97 3d 87 18 b0 bb 16 12 ea 3a
       0.026580283 0.07389962 -0.0053740176 0.0017858173
000140 06 96 8b bd a6 eb 05 bd eb 02 a0 bc 7a fc fb 3c
       -0.06815724 -0.032695435 -0.019532641 0.030760039
000150 a0 b3 fa bc 63 41 4a 3d 74 1d 54 3c 12 4f 59 bd
       -0.03060323 0.049378764 0.012946475 -0.053053923
000160 59 ac 6d 3a 4f 90 75 bc 55 69 0a 3d a9 d7 7d bd
       0.00090665143 -0.014988019 0.03379186 -0.061973248
000170 da c6 16 3d 48 61 db bc 76 5f 2a 3d 9c 84 80 bc
       0.036810733 -0.026779786 0.041594945 -0.015688233
000180 57 9d a1 bc 04 ab 8c 3d b2 5f 30 bd 2e 43 2e 3d
       -0.019728346 0.06868556 -0.043060012 0.042544536
000190 88 ba a1 bd 61 12 df 3b e0 b1 c2 bb 46 a8 85 bd
       -0.07896906 0.006807611 -0.0059416145 -0.06526236
0001a0 83 bb 5b 3d 94 60 71 3d e2 3f f9 bb 97 61 ec bb
       0.053645622 0.058929995 -0.0076064924 -0.007213782
0001b0 e2 a8 06 bd d9 99 9b 3d 0f 00 03 bd 5e 70 8e 3d
       -0.032875903 0.075977035 -0.031982478 0.06955026
0001c0 cc c3 6f 3d f5 f5 51 3d db 14 2a bc ad 1d 1d 3d
       0.058536336 0.051259954 -0.010380949 0.03835838
0001d0 34 75 8c 3c 5d b1 be bc 7e ab 39 bd dd 89 ef 3c
       0.01714573 -0.023277933 -0.045329563 0.029240543
0001e0 ba c1 55 bd 68 5b 0b 3b 20 e1 5b bd 80 37 a0 3c
       -0.052186705 0.00212642 -0.053681493 0.019557714
0001f0 04 e3 5c bd 99 39 a3 3c 34 96 66 3d 32 eb 2b 3d
       -0.053927436 0.019924926 0.05629559 0.041972347
000200 29 04 09 bc df bb 70 3d bf c6 e4 3c 9c 6c 9d 3d
       -0.008362808 0.058772918 0.0279268 0.07686731
000210 15 38 cd bc 6b 25 71 bd de 9c 1e 3d 64 c9 1a bd
       -0.025051156 -0.058873575 0.03872382 -0.037789717
000220 6d 36 11 3d f7 03 99 bd 66 fa 85 3d 45 2c 4b bc
       0.035452295 -0.07471459 0.065419 -0.012400691
000230 db 3a 45 3d e2 01 0a bd 8b 23 f5 3c fc a9 9a 3c
       0.048151832 -0.0336932 0.029924175 0.018879883
000240 ee b6 95 bb d3 35 90 bd 2d 0f c4 3c 74 0b 77 3d
       -0.004568926 -0.07041516 0.023933018 0.060313657
000250 32 ac 97 bd 58 3f e1 bb da 67 07 bd 3f bd 9c 3d
       -0.074058905 -0.0068740062 -0.033058025 0.07653283
000260 9b b1 03 3d f6 cc 79 bd fa 1d 19 bd 95 e5 16 3d
       0.0321518 -0.06098648 -0.037382104 0.03684004
000270 9b 7a 8c 3d c2 ea 11 bd e8 3b 42 3d 9e 57 6b bd
       0.06859323 -0.035624273 0.047420412 -0.057456605
000280 b5 50 a5 bd 6d 3e 3f bc be 39 e9 bb 8f 7e 2a bc
       -0.08072034 -0.011672598 -0.007117479 -0.0104061505
000290 65 32 4a 3c f0 79 36 bd e4 4d 43 3c a2 56 a0 3c
       0.012341117 -0.044549882 0.011920426 0.01957256
0002a0 aa cb 86 bd db 7a 26 3d 49 ac 82 bd a0 27 c7 3c
       -0.065818146 0.040644508 -0.06380517 0.024310887
0002b0 ea 7a ae 3c fc 2a 0a 3d 3a c5 66 bd 35 11 4e bd
       0.021298844 0.0337324 -0.056340434 -0.05030938
0002c0 a7 e4 51 3d 53 98 a1 3d a7 75 95 bd 03 be dd 3c
       0.05124345 0.07890382 -0.07297831 0.027068144
0002d0 e6 05 89 3d 15 80 82 3d d1 8f 1f bc 11 f3 64 bd
       0.06690578 0.06372086 -0.009738878 -0.05589587
0002e0 d9 4d ac bb 99 e4 84 3d d5 b4 96 ba 83 85 ab 3c
       -0.0052583036 0.06488914 -0.0011497984 0.020937687
0002f0 00 bf 45 bd b9 a1 40 bd 9f ac 64 bc f0 a6 92 bd
       -0.048277855 -0.04702923 -0.013957172 -0.07160747
000300 b7 68 76 3d c2 ee 40 bd 7b de 94 bd 0f 70 4d 3c
       0.060158458 -0.047102697 -0.07268997 0.012538924
000310 99 b9 ac 3c 07 46 36 3c de cf 28 3c 82 ae 4c bd
       0.021084594 0.011125094 0.010303466 -0.04997111
000320 98 88 39 3d 16 fc 92 bc 42 a7 d0 bb f1 ae 91 bd
       0.04529628 -0.01794247 -0.006367595 -0.071134456
000330 d8 f6 0a bc 44 7d 4a bb 2e fe 27 3d d6 05 11 3c
       -0.008481704 -0.0030897418 0.04101389 0.008851489
000340 00 84 9b 3c f6 30 74 3d eb 2b be bc 55 1a 53 bc
       0.018983841 0.059617005 -0.023214301 -0.012884696
000350 db e1 41 bb a8 08 13 bb 62 72 0d bd 14 2f a7 3b
       -0.0029584083 -0.002243558 -0.034532912 0.0051020477
000360 4c f1 57 bc a2 4a 35 3d f1 c1 a5 3b 90 e4 3b 3d
       -0.013180088 0.04426063 0.00505852 0.04587227
000370 b4 9e 0e 3d 03 42 fb 3b 15 9a 1b 3d ac 03 98 3c
       0.03481932 0.0076677813 0.03798874 0.018556438
000380 bf 84 80 3d cf ec 90 bd 33 db 81 bc 0e 80 93 3d
       0.06275319 -0.07076418 -0.015851593 0.07202159
000390 44 5a a1 bc d8 f8 45 bd e2 0c 6a 3c d9 f4 89 3d
       -0.019696362 -0.04833302 0.014285298 0.06736154
0003a0 ff 9b 90 3c 56 6a 61 bc 83 91 8d 3c e7 ea c1 3c
       0.01765251 -0.013758263 0.0172813 0.02367158
0003b0 13 42 99 bc 26 ee 7d 3c 76 15 73 bd cf 14 81 bd
       -0.018708264 0.015498674 -0.05934664 -0.06302797
0003c0 73 4a 8b bc 42 f4 a0 3d 0d 18 ea 3c 70 ba eb 3c
       -0.017003274 0.078590885 0.028575921 0.028775424
0003d0 92 77 34 3d 84 0c c4 3b a0 d0 a0 3d e7 b0 0b bc
       0.044059344 0.0059829373 0.07852292 -0.0085260635
0003e0 6f 39 9e bc c2 3e 82 3c 82 74 56 bd d4 e4 ac 3b
       -0.019314496 0.015899066 -0.052357204 0.005276302
0003f0 fc 47 44 3c 74 7b 9f 3c 48 d7 a3 bc f5 c2 96 bd
       0.011980053 0.019468047 -0.020000115 -0.07361404

fc.bias f4 [5]
000000 ed 6d 14 bc 62 1c b8 3c 54 5a 3f b9 3b 56 01 3d
       -0.0090594115 0.022474471 -0.0001824883 0.031576376
000010 d5 46 24 3d
       0.040106613
