models/role_classifier.pth (torch, 9701 bytes, 2 tensors)

fc.weight f4 [5, 384]
000000 fb 26 84 3b be 06 15 3d f8 00 f2 bc f8 f6 4a 3d
       0.004032967 0.036383383 -0.029541478 0.049551934
000010 b8 35 e5 bc 6a be 24 3d 70 93 9b 3d d2 53 8a 3d
       -0.027979717 0.040220656 0.07596481 0.06754269
000020 3c b8 13 bd 46 cc fc bc 0e 87 59 bb fb 55 95 3c
       -0.03606437 -0.030859124 -0.003319207 0.018229475
000030 94 b6 83 3d a5 83 89 3d ae 93 04 3d 48 67 74 3d
       0.064313084 0.06714562 0.0323674 0.05966881
000040 3f 60 8b bd 8f 98 8a bc cc 19 46 bc 71 99 dd 3c
       -0.06805467 -0.016918449 -0.012091111 0.027050706
000050 b2 c3 5e 3c c4 6e 87 bd 3e 69 30 bc f3 33 fa bb
       0.013596462 -0.06612924 -0.010767279 -0.0076355874
000060 2e 8a 9e 3b df 67 9e bc 29 66 a2 bc 12 62 ec bc
       0.0048382496 -0.019336639 -0.019824104 -0.028855357
000070 b8 bb 25 3c 97 1d 5f 3d dc 29 91 bd bd 2a 8c 3c
       0.010115556 0.05447158 -0.07088062 0.017110223
000080 82 59 29 3d 7f 1c 54 3d 59 3d 3a bd bd af 2c bc
       0.041345127 0.05178499 -0.045468662 -0.010539946
000090 74 12 d7 3c 72 98 90 bb cc 93 01 3c 4f 85 62 bc
       0.026253916 -0.004412704 0.007908773 -0.013825729
0000a0 4d 03 a1 3c d0 c3 96 bd fd 0a 75 bd 45 21 a2 3c
       0.019654894 -0.07361567 -0.059824932 0.019791255
0000b0 c0 13 fd 3c 59 18 95 bd ca d5 e6 bb 46 d7 bd 3c
       0.030893207 -0.072800346 -0.0070445286 0.02317394
0000c0 8f 43 b2 bb ab e4 fa bc 36 4a 91 3d a1 7b 70 3c
       -0.0054401825 -0.030626616 0.07094233 0.014677913
0000d0 5e e8 81 bd c7 07 29 3b 99 90 5f bc 43 87 b0 3c
       -0.06343149 0.002579199 -0.013645315 0.021548873
0000e0 5e 13 cc bc 39 b4 a1 3c 48 4a 55 3b 91 92 8f 3d
       -0.024911579 0.019739257 0.0032545496 0.07010377
0000f0 11 a8 06 3d dc b7 1a bb 1f f7 4d bd 25 f4 9e 3d
       0.032875124 -0.0023608124 -0.0502845 0.077614106
000100 3d 84 9e 3d b5 a0 e5 bc 5d c2 f8 bb b2 e2 f2 bc
       0.07740066 -0.028030733 -0.0075915293 -0.029649112
000110 81 12 47 3c c9 52 e9 bc bc 2b 76 3d 71 0d 7f bc
       0.012150408 -0.028481858 0.060100302 -0.0155671695
000120 ac 41 85 bd b4 aa 2f 3b 15 63 c1 bc 5a b9 1f bd
       -0.065066665 0.0026804628 -0.023606816 -0.038995124
000130 cf d2 c0 3b d4 15 2a 3c 5d 06 5f 3d a4 f7 92 3d
       0.0058845053 0.010381181 0.054449428 0.0717614
000140 b2 fe 27 bd bd bc 5c bd a1 54 ad 3c 83 ab 68 3d
       -0.04101438 -0.053890932 0.021158518 0.05680419
000150 aa 02 1d bd 59 31 00 bc 36 1e ba 3c 18 c5 91 3c
       -0.03833262 -0.007824265 0.022719484 0.017794177
000160 e7 f1 9c 3d 8c fc 37 bc ce de 87 3d f9 a0 91 bd
       0.07663327 -0.011229645 0.066342935 -0.07110781
000170 df db b7 3b f9 f7 a0 bd 16 81 41 3d c7 62 e4 bb
       0.0056109275 -0.07859797 0.047242247 -0.006969783
000180 11 23 68 bd ba 7a cb bb 07 bd b4 bc 3d a2 4c 3d
       -0.056674067 -0.0062096985 -0.022062792 0.04995941
000190 8a 53 9d bd 3d 89 82 3d 4c 11 9a bd 6c a7 41 bb
       -0.076819494 0.063738324 -0.0752283 -0.0029549254
0001a0 b4 b6 40 3b 40 1b a2 3d 8d 37 a4 bc ea 07 70 3c
       0.0029405775 0.07915354 -0.02004602 0.014650324
0001b0 f0 ae 29 3b f9 5b 87 3d dd ab 73 bd cf a8 0d 3d
       0.0025891624 0.06609339 -0.059490073 0.034584817
0001c0 49 4b 6c 3c 6c 29 a7 3c 56 bd 47 bd 3b 14 cf bb
       0.014422246 0.020405494 -0.04876455 -0.0063195503
0001d0 77 03 36 3c e0 e3 84 bc e1 81 ba bb 52 a6 93 3d
       0.0111092245 -0.01622194 -0.0056917523 0.072094575
0001e0 76 9f 51 3c f4 12 af 3c ad a5 a9 bc fb 62 6c bd
       0.012794366 0.021371342 -0.020708883 -0.057711583
0001f0 ad d4 19 bd 39 8e ac 3c fd d9 62 bc c0 81 5b ba
       -0.03755634 0.02106391 -0.013845918 -0.0008373521
000200 73 44 b0 3b ae ea 44 ba b6 a8 d7 3c 5f 21 36 3a
       0.0053792535 -0.00075117766 0.026325565 0.00069477217
000210 2e 02 86 bd 65 c7 21 bd 14 29 64 3d 47 20 19 bd
       -0.065433845 -0.039496798 0.055703238 -0.037384298
000220 d9 d0 5a 3c a3 18 aa 3c 30 72 82 3d 99 a7 16 3c
       0.013355457 0.0207637 0.06369436 0.009195232
000230 66 ae 23 3c 40 ac 6c bd e6 cc 39 3d f4 ac 92 3b
       0.00999031 -0.057781458 0.045361422 0.004476184
000240 fb 95 a4 bc 6a c4 09 bd 12 e1 9f 3b f0 f6 44 3d
       -0.020091048 -0.03363458 0.0048791254 0.04808706
000250 e7 cd a2 3c 70 ab 6f ba 65 20 3d bd 98 f8 20 3d
       0.019873573 -0.00091426726 -0.046173472 0.039299577
000260 70 a2 e8 3c ec 2a a2 bc 84 0b 5c bd bc d1 c5 3a
       0.028397769 -0.019795857 -0.05372192 0.0015092413
000270 92 21 4a 3d e3 3b 99 bd d0 f6 97 3c e2 ff 09 bb
       0.04934842 -0.074821256 0.018550307 -0.002105706
000280 c1 3d 42 3c 61 62 b2 3c 6a 6c 6a 3d f4 b8 58 bc
       0.011855544 0.021775426 0.057232298 -0.01322769
000290 c6 8c f0 bb b0 8a 05 3c 5e d7 b6 bc ca 41 35 bd
       -0.0073410003 0.008150741 -0.022319492 -0.044252194
0002a0 dd 51 53 bd 74 84 1d ba 6c 38 92 bd 79 dd 44 bc
       -0.051591743 -0.0006008812 -0.07139668 -0.012015694
0002b0 a8 96 4c bc 1e da 8a 3d f0 38 97 bd 18 79 28 bb
       -0.012487091 0.06779884 -0.07383907 -0.0025706943
0002c0 65 80 ec 3c e4 24 6d 3c b1 b9 8b bd 09 d6 04 3d
       0.028869817 0.014474127 -0.06822527 0.032430682
0002d0 0c 5a dc 3b 41 59 85 3d 56 7e fc ba 4c 84 8c bd
       0.0067246016 0.065111645 -0.0019263725 -0.06861171
0002e0 cd 98 83 bd eb 5f 81 bb 0a 83 9d bd 4a 89 03 3c
       -0.06425629 -0.003948202 -0.07691009 0.008028338
0002f0 6d f2 a4 bd 40 73 9e 3c 8d 78 0b bc bd e0 a4 bd
       -0.080540515 0.019342065 -0.008512628 -0.08050678
000300 3f 41 7d 3d b1 d2 d5 bc 57 bb 98 bc 46 cd 07 bd
       0.0618298 -0.026101442 -0.018644018 -0.03315475
000310 cf e1 cf 3c 7d e4 9d 3d b1 28 d2 3c a2 a1 8c bb
       0.025376229 0.07709596 0.025654169 -0.004291729
000320 bc a4 a2 3d 11 3f ff bc d2 e6 94 bd 01 ea 67 bd
       0.07941577 -0.031158002 -0.07270588 -0.056619648
000330 02 b8 92 3c 9a 34 1b 3b 3a f5 74 3d 52 2e a5 bc
       0.017910007 0.0023682476 0.05980418 -0.020163689
000340 aa f1 3e 3d c1 d4 7c 3d 87 24 9f bd e1 c0 64 3d
       0.046617188 0.061726335 -0.07770639 0.055848006
000350 04 32 71 bd 82 60 45 bc 6f 9d a9 3b 41 ac 1c ba
       -0.05888559 -0.012046935 0.0051762382 -0.00059765956
000360 54 14 32 3d d0 ac 69 3d 38 75 2e 3d c8 20 42 3a
       0.043476418 0.057049572 0.042592257 0.00074053975
000370 19 b4 d0 3c 0f 93 57 3d 43 66 49 3d 23 19 03 bd
       0.025476502 0.05263048 0.04916979 -0.032006394
000380 bd aa a3 3d 93 c6 9e 3c a1 e2 78 bd 2f ab 9b 3d
       0.0799155 0.019381797 -0.060763005 0.0760101
000390 24 18 9e bd 90 be 2d bc 2f 37 87 3c 76 98 00 3d
       -0.07719448 -0.010604516 0.016505806 0.031395398
0003a0 97 cd a1 3c 27 b3 96 3c 79 79 a4 bd b7 d0 d3 3c
       0.019751353 0.018395973 -0.080309816 0.025856359
0003b0 83 40 1d bd 17 9f 96 bc bf a7 95 bc 80 ee 88 bd
       -0.0383916 -0.018386407 -0.018268464 -0.06686115
0003c0 37 c1 89 3d 43 bb 5b 3d 83 25 47 3c 55 0b 81 3d
       0.06726306 0.053645384 0.01215494 0.063009895
0003d0 9c af ad bc e1 7b 65 3d db c7 8d 3c 25 aa 66 bd
       -0.021201901 0.056026343 0.017307213 -0.056314606
0003e0 4f a9 88 3b 4a 98 38 3c 5f 7d a6 bc dc 5e 97 bd
       0.004170574 0.011266777 -0.020323453 -0.0739114
0003f0 38 d8 27 3c 7c a5 9d 3b 4c cd 4f bc 36 77 4a 3c
       0.010244422 0.004810987 -0.012683224 0.012357524

fc.bias f4 [5]
000000 9c 56 a3 bc 24 22 c9 bb 2a da 52 3c b0 65 0d 3d
       -0.01993876 -0.006138103 0.012869397 0.034520805
000010 b5 42 f3 3c
       0.029694894
