models/role_classifier.pth (torch, 9701 bytes, 2 tensors)

fc.weight f4 [5, 384]
-0.041253887 0.019094331 -0.024692552 -0.042782627 0.003708791 0.061400354 0.08043105 0.0624481
0.007550106 0.015101359 -0.001354458 0.0677812 0.07122852 0.07670656 0.01608903 0.0765066
-0.07655891 0.039271288 0.058480255 0.014200351 0.0019018314 -0.069399476 0.01678939 -0.0044854693
-0.005579271 -0.039985288 0.018461136 -0.016098768 0.0091319755 0.027483761 -0.0038266988 -0.03585324
0.06990357 0.0017847179 -0.039166763 0.060048394 -0.008886802 0.008515764 0.034233417 -0.06918874
-0.005888466 0.016721798 -0.01858408 -0.029925533 0.017347801 -0.069385074 0.016792981 -0.01942177
-0.013617463 -0.011003277 0.042505074 -0.061133467 -0.009201087 0.010754255 -0.011981948 0.010740325
-0.0012005633 -0.019938579 -0.013857176 0.01137444 0.00693936 -0.033862565 -0.06638193 0.028222138
0.06131079 -0.034140993 -0.06498809 0.007567345 0.059420906 -0.053632222 0.057804305 -0.025245843
-0.065515436 -0.06819112 0.017955538 -0.0728354 0.010515885 -0.003603616 0.0679142 0.040598754
-0.0104849385 -0.058966033 0.04135363 0.069843985 -0.05667994 0.037496194 0.037256904 0.003931972
0.03181427 0.06220985 0.03629911 -0.076448485 0.006030435 -0.05775615 0.032641504 -0.024766108
-0.025646346 0.000574262 -0.02842302 0.011740397 -0.024508018 0.02904484 -0.02193488 -0.0712191
-0.016699629 0.045530256 -0.0020739136 -0.04743342 -0.0333634 0.030193448 0.0044785314 0.0004993517
0.018627184 -0.011651242 -0.0068637007 0.017846331 0.02521483 0.020906877 -0.009114542 0.047273304
-0.07854352 0.068918 -0.05269057 0.0035648928 -0.045213286 0.029470393 0.03208051 0.048694253
0.07049847 0.04033911 0.07820517 0.03753028 -0.034804683 -0.05159014 0.051929545 -0.075855725
0.016699314 -0.056122176 -0.014333499 -0.030963182 0.0033338843 -0.040054165 -0.01378218 0.037989184
-0.01747687 -0.0018325369 0.02952184 0.03228982 -0.03899411 0.039688013 -0.014192961 0.067623906
0.024655705 -0.06390831 -0.0055697695 0.023926413 0.058226824 -0.037593108 0.024966322 -0.06597574
-0.007850973 0.02877677 0.035020422 0.060366794 0.0030348564 -0.002891216 -0.07798461 -0.027589897
-0.021094495 -0.0160038 -0.080323495 0.060159028 0.038655274 0.015098358 0.009545736 -0.01891191
0.009797404 0.05406196 -0.04494084 0.031387918 0.05806322 0.025467297 0.03627086 -0.065697916
-0.057508457 -0.009347232 -0.037122957 0.074778624 -0.059765395 -0.040347617 0.043206215 0.04216388
0.02477895 0.019003492 -0.0109925065 0.008678881 -0.015107776 -0.013616951 -0.015518573 -0.03139577
0.055397514 -0.01860204 -0.06331778 -0.029064089 0.015699219 0.0043812674 0.015914386 -0.06386048
-0.0084329285 -0.014361085 0.007851097 -0.00074946217 -0.07092072 0.0068973945 -0.06375643 0.042686105
-0.016170109 0.05618916 0.010473854 0.051795375 0.003461998 0.05408988 0.023121374 -0.025912533
0.021569233 0.008372654 -0.039545104 0.038417522 -0.06581503 -0.041238803 -0.007142788 0.057074647
-0.033844765 -0.0040832665 -0.0058490196 0.017828356 -0.032494757 0.045763593 -0.07367644 -0.036546115
0.034679268 0.0760176 -0.019924767 0.048771746 0.054268893 0.027023014 0.0187624 -0.06323376
0.015994294 -0.075449675 -0.025494995 -0.0143018365 0.004582844 -0.018113153 0.052270614 -0.030312952
00000000: d6f9 28bd b76b 9c3c 0948 cabc d63c 2fbd
00000010: 300f 733b f07e 7b3d 09b9 a43d 94c9 7f3d
00000020: e166 f73b b16b 773c 1288 b1ba dfd0 8a3d
00000030: 42e0 913d 5418 9d3d 24cd 833c 7eaf 9c3d
00000040: ebca 9cbd eeda 203d fe88 6f3d 97a8 683c
00000050: df46 f93a 5021 8ebd e789 893c d8fa 92bb
00000060: 51d2 b6bb 9dc7 23bd cf3b 973c 90e1 83bc
00000070: 489e 153c a025 e13c 5ac9 7abb d9da 12bd
00000080: 9a29 8f3d 32ed e93a 546d 20bd 4ef5 753d
00000090: f399 11bc b485 0b3c 5738 0c3d d3b2 8dbd
000000a0: 08f4 c0bb 27fc 883c a43d 98bc 6426 f5bc
000000b0: fa1c 8e3c c319 8ebd 6f91 893c 671a 9fbc
000000c0: c81b 5fbc 1747 34bc cd19 2e3d 1667 7abd
000000d0: 28c0 16bc 9d32 303c ef4f 44bc 30f8 2f3c
000000e0: 385c 9dba 3b56 a3bc 3509 63bc dc5b 3a3c
000000f0: 9263 e33b 79b3 0abd 40f3 87bd 1d32 e73c
00000100: 0621 7b3d 6dd7 0bbd 7a18 85bd 7ef7 f73b
00000110: 5663 733d 76ad 5bbd 35c4 6c3d 5fd0 cebc
00000120: f52c 86bd c9a7 8bbd 7e17 933c ba2a 95bd
00000130: d24a 2c3c a52a 6cbb 9a16 8b3d e14a 263d
00000140: 05c9 2bbc 5e86 71bd 6d62 293d 5d0a 8f3d
00000150: 3a29 68bd 9c95 193d b29a 183d c6d7 803b
00000160: ae4f 023d c1cf 7e3d 60ae 143d 0691 9cbd
00000170: f59a c53b b691 6cbd 19b3 053d 4be2 cabc
00000180: 4918 d2bc 128a 163a 65d7 e8bc cb5a 403c
00000190: 0ac5 c8bc 72ef ed3c c7b0 b3bc 52db 91bd
000001a0: a9cd 88bc ef7d 3a3d 7fea 07bb 8c49 42bd
000001b0: 0fa8 08bd 4058 f73c a5c0 923b ede6 023a
000001c0: 0998 983c dae4 3ebc e5e8 e0bb 7832 923c
000001d0: 558f ce3c e644 ab3c 2955 15bc a7a1 413d
000001e0: 6ddb a0bd e124 8d3d 11d2 57bd faa0 693b
000001f0: 9131 39bd e56b f13c da66 033d a073 473d
00000200: 8061 903d 9f3a 253d 082a a03d 5ab9 193d
00000210: 5b8f 0ebd 2f50 53bd 13b4 543d 3f5a 9bbd
00000220: 00cd 883c 5ee0 65bd 0dd7 6abc 80a6 fdbc
00000230: 4c7d 5a3b d60f 24bd a7ce 61bc 8c9a 1b3d
00000240: a72b 8fbc bc31 f0ba c9d7 f13c 5542 043d
00000250: 4ab8 1fbd e68f 223d 9889 68bc 677e 8a3d
00000260: c3fa c93c 5ce2 82bd 9d82 b6bb 5301 c43c
00000270: 407f 6e3d 3bfb 19bd 2c86 cc3c 4a1e 87bd
00000280: 5ea1 00bc 43bd eb3c 9371 0f3d 2c43 773d
00000290: 71e4 463b 8e7a 3dbb 65b6 9fbd 3504 e2bc
000002a0: 5dce acbc 671a 83bc a580 a4bd 5069 763d
000002b0: fe54 1e3d 1a5f 773c b865 1c3c 26ed 9abc
000002c0: 4a85 203c 1370 5d3d e313 38bd 9e90 003d
000002d0: b3d3 6d3d cba0 d03c c190 143d a18c 86bd
000002e0: fd8d 6bbd 2225 19bc 3e0e 18bd 8925 993d
000002f0: 8fcc 74bd 8b43 25bd 00f9 303d 08b4 2c3d
00000300: 39fd ca3c 36ad 9b3c ea19 34bc de31 0e3c
00000310: 9b86 77bc a219 5fbc 9d41 7ebc da98 00bd
00000320: 81e8 623d 4e63 98bc c1ac 81bd d017 eebc
00000330: a69b 803c bc90 8f3b e35e 823c 49c9 82bd
00000340: 442a 0abc c24a 6bbc e3a1 003c 8e77 44ba
00000350: e23e 91bd 8a03 e23b bb92 82bd a0d7 2e3d
00000360: 2d77 84bc 9b26 663d 879a 2b3c 6327 543d
00000370: b0e2 623b 5a8d 5d3d 0969 bd3c 8546 d4bc
00000380: f6b1 b03c 752d 093c 0cfa 21bd b15b 1d3d
00000390: 08ca 86bd 05ea 28bd 0c0e eabb 1bc7 693d
000003a0: cfa0 0abd eccc 85bb 22a9 bfbb c60c 923c
000003b0: 3919 05bd 9b72 3b3d ace3 96bd 61b1 15bd
000003c0: d90b 0e3d 1eaf 9b3d 4439 a3bc e2c4 473d
000003d0: 0f49 5e3d 5e5f dd3c 9bb3 993c b480 81bd
000003e0: 7706 833c 5c85 9abd e1da d0bc 4052 6abc
000003f0: af2b 963b 0962 94bc b619 563d de52 f8bc

fc.bias f4 [5]
-0.020796554 -0.024678215 0.005218659 -0.008019272 0.014583236
00000000: 895d aabc f829 cabc 4901 ab3b 4463 03bc
00000010: 86ee 6e3c
